checkpoints/best_model.pt (torch, 155415 bytes, 6 tensors)

gru.weight_ih_l0 f4 [192, 100]
0.13647532 0.14467725 0.010407375 -0.1270505 0.0030073137 0.063882515 -0.014941884 0.1414751
0.0074872985 -0.0043492727 0.057214137 -0.054402877 0.008736098 0.10796384 -0.05987066 0.19651425
-0.16304879 -0.01729405 0.10885891 0.046466626 0.18851757 -0.053857908 0.10129824 0.012010337
0.07854227 0.058042962 -0.0050594355 -0.041753862 0.11776704 0.017745985 -0.038932484 -0.005101892
-0.12568916 0.2056005 -0.057154045 -0.020643335 0.14869894 0.124502614 -0.036267295 -0.036924817
-0.022517167 -0.10177978 0.033978876 0.13510802 0.15163851 0.114407495 -0.12502299 0.10393577
0.19543578 0.016616657 -0.057464954 0.10790174 0.0798156 0.061464507 -0.06922681 0.1527764
-0.08589234 -0.03343733 -0.016221916 -0.0433195 -0.05490109 0.13317513 0.18809469 0.13721886
0.15511656 -0.043729197 -0.08385529 0.12427538 -0.0070342557 0.07386575 -0.04105535 -0.06871626
0.017222406 -0.04887309 0.0166199 0.112914376 0.01637004 -0.0014109191 -0.04215822 0.21181366
0.09324064 0.022180678 -0.068753056 0.08105158 0.13927135 0.11668807 -0.027024863 0.0049105855
-0.07014661 0.14580224 -0.054666292 -0.008966655 0.068749174 -0.056736007 0.07524023 -0.12382556
-0.16808765 -0.25236621 -0.008824618 0.0315444 -0.05608521 -0.028218457 -0.08194793 -0.026723547
-0.017537639 -0.009885768 0.0928059 -0.07563749 0.0865414 0.16843514 -0.018488774 0.1236058
-0.096324265 0.0503618 -0.036610015 0.05221535 -0.050266113 -0.07491923 0.0660404 0.10396297
-0.055142514 -0.036493093 -0.047160175 -0.007203747 0.04482063 -0.04364266 0.11702289 0.067323
-0.01169186 0.14440736 0.01853091 0.040643483 -0.055043306 0.050342456 -0.07097057 0.1132721
-0.080978215 -0.08187889 0.1228286 -0.030189915 0.03059936 -0.123792745 0.052459337 -0.06593682
-0.049193483 0.11317207 -0.101922 0.14562269 0.15096197 -0.06375168 -0.09910101 0.12082115
0.022466905 0.119135216 -0.02658951 0.045737777 0.097812854 0.07367011 -0.0070228497 0.00820552
0.004699519 -0.03533162 0.07016953 0.1799457 -0.000104614344 0.1113169 0.06350617 0.13688053
-0.053204037 0.06528957 0.04759489 -0.037817154 0.09018489 -0.07068462 0.12428013 -0.061319962
-0.053294104 0.020911545 -0.05861772 0.06808117 -0.06552687 -0.042126745 -0.029665314 0.09121318
0.04698397 -0.10153661 -0.06770466 -0.06893724 -0.12520657 0.062061515 -0.08432016 0.09351847
-0.012134671 0.10084535 0.022671122 0.0536026 -0.086115636 0.025795734 -0.087324746 0.015130711
0.0022155803 -0.029492494 0.048956756 -0.041574646 0.07218509 0.034077525 0.08592298 -0.040574215
-0.010003673 0.1944314 0.21675748 -0.10759535 0.1254193 -0.012289111 -0.09069269 0.083176404
0.0930682 -0.03167799 0.0069581177 0.062147073 -0.010861645 0.03130324 -0.021609098 0.17399226
0.14345258 -0.04585161 -0.005690568 -0.11893363 0.078332044 -0.17036714 0.123138376 0.13806859
-0.114989325 -0.0014781076 0.07667117 -0.042898588 0.02297314 0.19240205 0.0956351 0.037761234
0.0037108893 -0.04648166 -0.13098848 0.04367537 -0.04291591 0.030569151 0.13802701 0.014655813
-0.021333959 -0.13081951 -0.13929336 0.013256391 0.060955156 -0.03401111 -0.04466085 0.042257093
00000000: 30c0 0b3e 4626 143e b283 2a3c 8719 02be
00000010: 5a16 453b d6d4 823d cece 74bc d9de 103e
00000020: 0358 f53b 5884 8ebb 5f59 6a3d 8dd5 5ebd
00000030: da21 0f3c 251c dd3d f03a 75bd 083b 493e
00000040: 43f6 26be 40ac 8dbc 6cf1 de3d ca53 3e3d
00000050: c00a 413e 1c9a 5cbd 7475 cf3d 01c7 443c
00000060: c5da a03d 75be 6d3d 9fc9 a5bb 1906 2bbd
00000070: d92f f13d 0760 913c ab77 1fbd c62d a7bb
00000080: a9b4 00be f088 523e 5c1a 6abd 361c a9bc
00000090: 8944 183e 3afb fe3d 048d 14bd 7a3e 17bd
000000a0: ec75 b8bc eb71 d0bd 6f2d 0b3d c259 0a3e
000000b0: 2047 1b3e 7a4e ea3d 0706 00be 47dc d43d
000000c0: 5120 483e a81f 883c 5f60 6bbd 96fb dc3d
000000d0: 5c76 a33d 35c2 7b3d c9c6 8dbd 6b71 1c3e
000000e0: 53e8 afbd 95f5 08bd d3e3 84bc ca6f 31bd
000000f0: f7df 60bd 105f 083e e59b 403e 1a83 0c3e
00000100: e0d6 1e3e 631d 33bd 53bc abbd 1784 fe3d
00000110: 9d7f e6bb ed46 973d a829 28bd 1cbb 8cbd
00000120: 0116 8d3c 262f 48bd 7526 883c a73f e73d
00000130: 761a 863c 97ee b8ba 19ae 2cbd aee5 583e
00000140: f3f4 be3d 41b4 b53c 67ce 8cbd 5ffe a53d
00000150: 269d 0e3e 28fa ee3d 3f63 ddbc fae8 a03b
00000160: 07a9 8fbd 2f4d 153e c3e9 5fbd e0e8 12bc
00000170: 5ecc 8c3d 0464 68bd 8d17 9a3d 4198 fdbd
00000180: 2b1f 2cbe 2536 81be 2195 10bc b334 013d
00000190: 9bb9 65bd 652a e7bc 51d4 a7bd 57eb dabc
000001a0: 18ab 8fbc ebf7 21bc 0511 be3d d4e7 9abd
000001b0: 9e3c b13d 437a 2c3e c575 97bc 0a25 fd3d
000001c0: a845 c5bd 2d48 4e3d 62f4 15bd c3df 553d
000001d0: d7e3 4dbd 416f 99bd 3040 873d 8aea d43d
000001e0: 1edd 61bd c879 15bd 072b 41bd 690d ecbb
000001f0: d695 373d a5c2 32bd b2a9 ef3d a4e0 893d
00000200: 378f 3fbc 86df 133e 23ce 973c c879 263d
00000210: 1775 61bd e433 4e3d 0559 91bd 34fb e73d
00000220: e8d7 a5bd 1fb0 a7bd 908d fb3d d750 f7bc
00000230: 82ab fa3c 0d87 fdbd 9adf 563d e209 87bd
00000240: 1b7f 49bd c2c6 e73d 7bbc d0bd 1d1e 153e
00000250: c695 1a3e 3e90 82bd 78f5 cabd 1471 f73d
00000260: 840c b83c 2afd f33d 3ed2 d9bc 8957 3b3d
00000270: 1b52 c83d 5be0 963d ef1f e6bb 7270 063c
00000280: 6cfe 993b e4b7 10bd 0bb5 8f3d b043 383e
00000290: 6664 dbb8 1dfa e33d 860f 823d 692a 0c3e
000002a0: 7aec 59bd 8ab6 853d dcf2 423d 29e6 1abd
000002b0: dbb2 b83d 19c3 90bd 9586 fe3d a42a 7bbd
000002c0: eb4a 5abd b04e ab3c 2219 70bd 246e 8b3d
000002d0: f432 86bd 188d 2cbd ac04 f3bc facd ba3d
000002e0: 4372 403d 6df2 cfbd bea8 8abd f82e 8dbd
000002f0: 2736 00be 3734 7e3d 0cb0 acbd 9d86 bf3d
00000300: 80d0 46bc 0288 ce3d cab8 b93c 668e 5b3d
00000310: 655d b0bd 9351 d33c 51d7 b2bd cde6 773c
00000320: 4533 113b 3e9a f1bc e186 483d 2d4a 2abd
00000330: c7d5 933d e094 0b3d 63f8 af3d 2631 26bd
00000340: 72e6 23bc 0619 473e acf5 5d3e f35a dcbd
00000350: eb6d 003e 4458 49bc 17bd b9bd 6458 aa3d
00000360: 8a9a be3d c8c0 01bd ec00 e43b ee8d 7e3d
00000370: 0bf5 31bc d437 003d 9005 b1bc 072b 323e
00000380: 3ce5 123e e6ce 3bbd f277 babb 7a93 f3bd
00000390: 8d6c a03d b974 2ebe f92f fc3d da61 0d3e
000003a0: 867f ebbd 10bd c1ba c605 9d3d 6eb6 2fbd
000003b0: 2b32 bc3c 0b05 453e 56dc c33d 86ab 1a3d
000003c0: 6432 733b 8e63 3ebd d821 06be f2e4 323d
000003d0: 98c8 2fbd 286c fa3c f456 0d3e ef1e 703c
000003e0: 8ec4 aebc 8df5 05be eba2 0ebe 5531 593c
000003f0: 1dac 793d 3c4f 0bbd 4cee 36bd c615 2d3d

gru.weight_hh_l0 f4 [192, 64]
0.005383759 0.0835626 0.16005994 -0.10118946 -0.045394093 -0.17789516 0.014344383 -0.10937546
-0.108976744 -0.014962599 0.022171225 -0.04946453 0.04135005 -0.09665416 -0.00066065445 0.19969176
0.15459508 -0.03868879 0.12438787 0.07714104 -0.029612247 -0.00036980995 0.08081461 -0.1831256
-0.13676499 0.054439604 -0.005547023 -0.099303775 -0.027720839 -0.17041934 -0.056371696 -0.05081796
-0.04374648 -0.09568134 -0.06369989 0.07885128 -0.19753873 -0.030565673 0.024921365 0.061128937
0.016140291 -0.107839845 0.054073907 0.03926883 0.0138807865 0.13612759 -0.013806991 -0.10834121
-0.0010508498 -0.08650875 -0.029829083 0.020885918 -0.009103749 -0.09797091 0.011873171 -0.007215262
0.1371987 0.0043589654 0.14837211 -0.050517015 0.03443233 0.010473077 -0.009270063 -0.085882165
0.17690158 -0.08686267 -0.056739092 0.022778908 -0.031327955 -0.110724986 -0.07142235 0.0024117117
0.12674643 0.22930358 -0.021271667 -0.021755869 -0.079711035 0.18234164 0.06881672 -0.052425988
0.015577006 0.14318013 -0.019468533 0.052778203 -0.015482785 0.09956728 -0.0946267 -0.060753766
0.007564557 0.06213406 0.025786765 0.017638149 -0.12919484 0.015534599 -0.07198956 -0.27457586
-0.018597133 -0.1618909 0.021092076 0.030859495 0.024494013 -0.09741118 -0.065045096 -0.044626992
-0.051879045 -0.002833877 0.13592838 0.013795791 -0.037742116 -0.10537753 -0.033047076 0.22328174
-0.13762933 0.021203293 0.069950856 0.0052095484 -0.065430455 0.020404527 -0.05920709 -0.03962776
0.09245712 -0.118683964 -0.10568301 -0.011719087 -0.15512826 -0.022921983 -0.109672114 -0.013415366
0.013216423 -0.020848257 0.081028424 -0.061031032 -0.0500935 -0.0082410965 0.017709123 -0.036208265
0.027469438 0.1928261 -0.07746483 -0.14364623 -0.10657908 -0.043806057 -0.105804905 -0.07477255
-0.14543147 -0.11516911 0.13069534 -0.09618318 -0.02978319 -0.04549965 0.040890083 -0.0032794802
0.09887485 0.18030298 -0.09324645 0.0120661 -0.08710408 -0.11989102 -0.073961094 0.07391554
0.04757646 -0.17099184 -0.042313147 -0.06720825 -0.07245028 0.1081114 0.06685287 -0.056169897
-0.13158473 0.052940313 -0.00866985 -0.1297333 0.04668788 0.06894487 -0.11171812 0.06483044
0.016204188 0.10128906 -0.12284391 -0.070438154 0.11952272 -0.08306487 -0.10257474 -0.14987092
-0.18394986 -0.035384607 0.1134092 -0.054100648 0.12612627 0.08918997 -0.13416027 0.09387853
0.28116456 -0.025769498 -0.14479908 -0.09209078 -0.030872032 -0.026692348 -0.114058286 0.070052944
0.12927411 -0.050198816 -0.10477846 -0.057279874 -0.035866123 0.063872084 -0.1332003 -0.0027091443
-0.21021965 -0.17901155 0.10981339 -0.060299087 0.04695932 -0.022622304 -0.07794769 -0.09259691
0.13264692 -0.028314233 -0.17603101 0.18215494 0.070845194 0.03474647 0.055584226 -0.28078064
-0.11387333 -0.1193756 -0.055920523 0.13958137 0.039135523 0.10914142 -0.019194383 -0.046288233
0.024885854 -0.026386587 0.066978395 -0.08697326 0.10188404 0.08119722 0.039243832 0.086054236
-0.059994355 0.13003768 -0.27584803 -0.15299238 -0.027777962 -0.034836344 -0.046677805 0.0016758925
-0.30465305 -0.23088281 0.056160208 0.080127925 -0.044515852 0.043984324 0.047592834 0.026292149
00000000: 3e6a b03b de22 ab3d c1e6 233e 6b3c cfbd
00000010: 28ef 39bd 262a 36be b404 6b3c 3e00 e0bd
00000020: 332f dfbd b025 75bc 6ea0 b53c 529b 4abd
00000030: ac5e 293d 9ef2 c5bd c52f 2dba ff7b 4c3e
00000040: 2c4e 1e3e 2378 1ebd 11bf fe3d 1ffc 9d3d
00000050: 6295 f2bc 0de3 c1b9 2182 a53d 4785 3bbe
00000060: 1f0c 0cbe 10fc 5e3d cdc3 b5bb c75f cbbd
00000070: d016 e3bc 6882 2ebe 02e6 66bd 7e26 50bd
00000080: 822f 33bd 94f4 c3bd 1775 82bd c87c a13d
00000090: 9847 4abe dd64 fabc e427 cc3c 5662 7a3d
000000a0: a538 843c 23db dcbd 9a7c 5d3d 5ad8 203d
000000b0: 3d6c 633c 0865 0b3e b836 62bc ffe1 ddbd
000000c0: abbc 89ba 802b b1bd 1f5c f4bc f218 ab3c
000000d0: e427 15bc f9a4 c8bd b087 423c 016e ecbb
000000e0: d17d 0c3e a7d5 8e3b dcee 173e eeea 4ebd
000000f0: ea08 0d3d 4597 2b3c 76e1 17bc fde2 afbd
00000100: b025 353e 0ee5 b1bd 4067 68bd d59a ba3c
00000110: be51 00bd c8c3 e2bd e245 92bd cf0d 1e3b
00000120: d1c9 013e 8fce 6a3e eb41 aebc 5d39 b2bc
00000130: 8a3f a3bd c4b7 3a3e c8ef 8c3d a2bc 56bd
00000140: b336 7f3c d09d 123e 797c 9fbc f52d 583d
00000150: 82ab 7dbc eee9 cb3d a5cb c1bd f1d8 78bd
00000160: 1ae0 f73b 4980 7e3d c43e d33c e17d 903c
00000170: a74b 04be d584 7e3c 436f 93bd 3595 8cbe
00000180: 0459 98bc bac6 25be 4ac9 ac3c 0dcd fc3c
00000190: aba7 c83c 837f c7bd 5d36 85bd cbca 36bd
000001a0: 1f7f 54bd 91b8 39bb cf30 0b3e be07 623c
000001b0: 7a97 1abd 2dd0 d7bd 5f5c 07bd f8a3 643e
000001c0: b4ee 0cbe 87b2 ad3c 6542 8f3d dcb4 aa3b
000001d0: 6700 86bd 6527 a73c 2283 72bd b850 22bd
000001e0: 295a bd3d 9410 f3bd 5570 d8bd 6a01 40bc
000001f0: f1d9 1ebe e2c6 bbbc c69b e0bd 20cc 5bbc
00000200: b289 583c f7c9 aabc 3bf2 a53d adfb 79bd
00000210: d82e 4dbd aa05 07bc b912 913c 1e4f 14bd
00000220: 9607 e13c 3574 453e e1a5 9ebd ff17 13be
00000230: 2246 dabd fb6d 33bd 3eb0 d8bd 5a22 99bd
00000240: fdeb 14be c8dd ebbd 00d5 053e b0fb c4bd
00000250: e0fb f3bc d75d 3abd 5c7c 273d 8cec 56bb
00000260: e67e ca3d 58a1 383e fff7 bebd e4b0 453c
00000270: a063 b2bd 6c89 f5bd ea78 97bd 0861 973d
00000280: 89df 423d 7c18 2fbe 8d50 2dbd 7ba4 89bd
00000290: d060 94bd 8269 dd3d 28ea 883d 6812 66bd
000002a0: 26be 06be f1d7 583d fd0b 0ebc ced8 04be
000002b0: ca3b 3f3d f832 8d3d 78cc e4bd d2c5 843d
000002c0: a5be 843c a470 cf3d 9695 fbbd e141 90bd
000002d0: 54c8 f43d ea1d aabd b512 d2bd c377 19be
000002e0: 5a5d 3cbe 73ef 10bd 1543 e83d a498 5dbd
000002f0: 3f27 013e 3ba9 b63d 4f61 09be 6343 c03d
00000300: cdf4 8f3e 8e1a d3bc 3646 14be 179a bcbd
00000310: 58e7 fcbc e9a9 dabc 6497 e9bd eb77 8f3d
00000320: 6f60 043e 469d 4dbd 1796 d6bd 4d9e 6abd
00000330: 5be8 12bd 5ecf 823d a965 08be e68b 31bb
00000340: d243 57be ce4e 37be d8e5 e03d 2dfc 76bd
00000350: 6a58 403d 6952 b9bc 0aa3 9fbd 73a3 bdbd
00000360: 98d4 073e 40f3 e7bc 7941 34be d386 3a3e
00000370: 4917 913d 5152 0e3d 49ac 633d 7bc2 8fbe
00000380: 6c36 e9bd 327b f4bd eb0c 65bd 6bee 0e3e
00000390: 924c 203d 8985 df3d 8a3d 9dbc bb98 3dbd
000003a0: 6bdd cb3c af28 d8bc f82b 893d 091f b2bd
000003b0: 94a8 d03d ba4a a63d 24be 203d 343d b03d
000003c0: a4bc 75bd 9928 053e f43b 8dbe 09aa 1cbe
000003d0: 9c8e e3bc 8eb0 0ebd 3a31 3fbd 9fa9 db3a
000003e0: 7cfb 9bbe 8b6c 6cbe 3f08 663d 1c1a a43d
000003f0: 4156 36bd e828 343d b4f0 423d a262 d73c

gru.bias_ih_l0 f4 [192]
0.10882029 0.107802026 0.13557824 -0.0626519 0.08278257 0.04451891 0.020154908 0.16318025
0.10122367 0.05896557 0.043425467 -0.03170925 -0.05967942 0.00396721 0.13364601 -0.029919313
-0.07225078 -0.04532664 0.12982252 0.106164254 0.11174047 0.09099275 -0.08020223 -0.016449017
-0.04296943 0.03768415 0.006209508 0.05158879 0.121331066 0.20970754 0.063259676 0.1137121
0.16578844 -0.08554535 0.1495335 -0.02246762 -0.014424618 -0.045050632 0.095463194 -0.13705097
-0.016579947 -0.011185783 0.0650595 -0.053024404 0.06294887 0.07173697 -0.01784501 -0.02124692
-0.009782825 -0.08963844 0.22580123 0.15117383 0.048837442 -0.018648122 0.01273923 0.19582605
-0.061669957 0.05094898 -0.08828461 0.015014825 0.15758353 0.17202702 0.21883254 0.025528552
0.03183958 -0.07714365 -0.067724645 -0.059941504 -0.13057712 -0.11875849 -0.04819762 0.09866695
-0.05327466 0.0002767137 -0.10332272 -0.17622148 -0.1562793 0.045004755 -0.094542675 -0.06466372
0.101248555 -0.0014311883 -0.05131217 -0.0410104 -0.0031563034 -0.06407094 0.05442178 -0.07966151
-0.08956785 0.023555303 0.10680981 -0.058070987 -0.16674796 -0.11722082 -0.10414649 -0.10171699
-0.1076006 0.037988022 0.0833445 -0.062140927 -0.09053567 -0.07223835 -0.1386687 -0.07475966
-0.022169596 0.11632925 -0.026013909 -0.055787347 -0.053867843 0.054678172 0.14022356 -0.18964297
-0.10521199 -0.01269533 0.024858102 -0.20500015 -0.08798149 -0.037566017 0.12610295 -0.08838705
-0.21852705 -0.10299191 0.08371889 -0.09599385 -0.024428569 -0.0039515337 0.19959565 -0.032241497
-0.14206223 -0.10846491 0.041604973 0.05944063 0.08365415 0.09420955 0.0841593 -0.14889349
-0.013415766 0.09307053 -0.14984746 -0.063163295 -0.0014325844 0.014884851 -0.045638315 0.016560026
0.08694596 0.03688665 -0.025608268 -0.026915638 0.03208393 0.0078084595 -0.12935121 0.03095513
0.0422336 0.12323692 -0.19478963 0.13894576 0.10457212 -0.15569119 -0.06622366 0.06514937
0.1649989 -0.11594037 -0.0024329165 0.055783466 0.09166327 -0.032101106 0.11451273 -0.14676897
-0.04796083 0.084479995 0.06905724 -0.05089341 -0.08046659 -0.05821125 0.059902664 0.08366393
0.08796556 0.041936163 0.1361832 0.04830404 -0.14367196 0.01641642 -0.011888428 -0.09739851
-0.053176757 -0.023274105 0.055691533 -0.038149673 -0.016197272 -0.13166125 0.0535197 0.046375904
00000000: 2cdd de3d 4fc7 dc3d 06d5 0a3e a44f 80bd
00000010: e889 a93d 7659 363d e81b a53c b918 273e
00000020: 5b4e cf3d e285 713d e7de 313d 8fe1 01bd
00000030: 6872 74bd 5fff 813b 80da 083e 5919 f5bc
00000040: 38f8 93bd 6da8 39bd 32f0 043e a56c d93d
00000050: 30d8 e43d 685a ba3d 1141 a4bd 17c0 86bc
00000060: b700 30bd b25a 1a3d 2179 cb3b c44e 533d
00000070: 6c7c f83d 93bd 563e 4a8e 813d e4e1 e83d
00000080: 72c4 293e 6732 afbd 4f1f 193e 040e b8bc
00000090: 3c55 6cbc 0387 38bd 3582 c33d 1757 0cbe
000000a0: abd2 87bc 9344 37bc ea3d 853d 1e30 59bd
000000b0: 56eb 803d d5ea 923d b32f 92bc 050e aebc
000000c0: 2448 20bc 5c94 b7bd 7038 673e 50cd 1a3e
000000d0: c509 483d f2c3 98bc 34b8 503c a086 483e
000000e0: a399 7cbd e1af 503d 90ce b4bd be00 763c
000000f0: 945d 213e da27 303e a315 603e 4121 d13c
00000100: 386a 023d 7dfd 9dbd 38b3 8abd 3985 75bd
00000110: 02b6 05be a737 f3bd de6a 45bd e611 ca3d
00000120: 8836 5abd e213 9139 dd9a d3bd 6773 34be
00000130: ae07 20be e856 383d 979f c1bd 6a6e 84bd
00000140: 675b cf3d b696 bbba b62c 52bd 85fa 27bd
00000150: fcd9 4ebb a037 83bd 5fe9 5e3d 9325 a3bd
00000160: 596f b7bd 0df7 c03c 1abf da3d d8db 6dbd
00000170: fabf 2abe 7811 f0bd c14a d5bd ff50 d0bd
00000180: b45d dcbd 5499 1b3d 85b0 aa3d 7c87 7ebd
00000190: c46a b9bd b3f1 93bd 2bff 0dbe 981b 99bd
000001a0: 039d b5bc 083e ee3d 1f1b d5bc 4681 64bd
000001b0: 87a4 5cbd 38f6 5f3d c496 0f3e c431 42be
000001c0: 6279 d7bd 1300 50bc 38a3 cb3c 8feb 51be
000001d0: a42f b4bd d3de 19bd 2221 013e 4504 b5bd
000001e0: 8ec5 5fbe 6ced d2bd cf74 ab3d 6c98 c4bd
000001f0: 6c1e c8bc de7b 81bb cd62 4c3e a90f 04bd
00000200: c378 11be da22 debd fa69 2a3d 0578 733d
00000210: de52 ab3d f0f0 c03d b65b ac3d 8977 18be
00000220: cdcd 5bbc c39b be3d 9d71 19be c25b 81bd
00000230: 8ec5 bbba 97df 733c 3eef 3abd e4a8 873c
00000240: b910 b23d 7516 173d 6ec8 d1bc 2f7e dcbc
00000250: 706a 033d 1bde ff3b a574 04be 9d95 fd3c
00000260: 24fd 2c3d a363 fc3d ef76 47be cc47 0e3e
00000270: e829 d63d 836d 1fbe 45a0 87bd 086d 853d
00000280: 79f5 283e 2572 edbd 9171 1fbb 347d 643d
00000290: f4b9 bb3d 737c 03bd a685 ea3d 9b4a 16be
000002a0: 9372 44bd d903 ad3d e26d 8d3d 9c75 50bd
000002b0: abcb a4bd eb6e 6ebd 7f5c 753d ff57 ab3d
000002c0: 4a27 b43d 41c5 2b3d 9c73 0b3e 75da 453d
000002d0: be1e 13be ba7b 863c aec7 42bc df78 c7bd
000002e0: dfcf 59bd 56a9 bebc ce1c 643d d542 1cbd
000002f0: 24b0 84bc 35d2 06be 7937 5b3d a9f4 3d3d

gru.bias_hh_l0 f4 [192]
-0.0702045 0.08637023 -0.062044516 0.030914819 -0.0688293 -0.1245956 0.096733555 0.15675622
0.12677987 0.23047474 -0.062677346 0.04851663 0.08294823 0.20239666 -0.018738013 0.0043281196
0.15809564 -0.026552832 0.00020924042 0.12671757 0.22357924 0.20373574 0.031877298 0.084105305
0.13882862 0.051672623 -0.027390331 0.08329309 -0.058301818 0.12758055 -0.076953314 0.19239944
-0.026747398 0.09759721 0.1711015 -0.02442191 0.052381095 0.0361322 0.060191967 0.093771376
-0.07381962 0.18453705 -0.006023891 0.079698294 0.23643795 0.045761112 0.17873126 0.008306099
-0.021404766 0.102588154 0.10830208 0.10383965 0.12688914 -0.028236926 -0.040387366 0.18538566
-0.09780966 0.093865626 -0.063394465 0.031940337 0.1620165 -0.019678248 0.019647557 -0.034172937
-0.0067207688 -0.12628898 0.01970322 -0.039911445 -0.07104428 -0.16911009 -0.12627698 -0.09116181
-0.16583921 0.088536456 -0.027188467 -0.0017221065 0.040966194 -0.021766426 -0.068121016 -0.016078355
-0.03768208 0.10268848 0.02815656 -0.009732149 0.034777384 0.041113276 0.13179557 0.03276786
0.08886793 -0.009141216 0.020515265 -0.21792798 -0.15887319 -0.12370879 0.08965335 0.000938659
-0.0661519 -0.100230925 0.14185531 -0.0329766 0.088980444 -0.054040644 -0.14239927 0.0140828
0.11788299 0.023755232 -0.10504593 -0.13064434 0.082225844 -0.051951103 0.14561182 -0.18351711
0.05040419 -0.074513756 0.089657195 -0.092520714 -0.18226084 -0.18837237 0.123889565 0.12147819
-0.14213733 0.021109955 0.05861186 -0.14722568 -0.03799731 0.07929893 0.19669914 0.01795626
0.016063161 0.037736114 -0.10629302 -0.10561106 0.06772549 -0.018971762 -0.09811724 0.028331101
0.105515726 0.053761058 -0.042184837 -0.074243434 -0.12872694 -0.08673677 -0.038614143 -0.062538736
0.15274005 0.10540474 0.03254265 0.03958379 0.12466893 0.00025293752 -0.14925975 0.047276117
-0.1576661 0.1783845 -0.12760812 0.13695721 -0.11405244 -0.09290736 0.0205585 0.123166
-0.024465613 0.09219341 -0.061306365 -0.033726897 -0.10574377 0.050238468 0.10521912 0.09945864
0.04215555 -0.039831564 -0.02746257 0.00075271603 -0.0014350847 0.047063913 0.12019325 -0.08029002
-0.099535406 0.13693522 0.0421429 0.0086117 0.066031314 0.16005927 0.13717744 -0.048270743
0.053835303 -0.12892182 0.10832075 0.08216907 -0.09051309 -0.15780799 -0.0375569 0.023584653
00000000: 60c7 8fbd e0e2 b03d 6422 7ebd 1341 fd3c
00000010: 60f6 8cbd fa2b ffbd 3e1c c63d b484 203e
00000020: 95d2 013e 9201 6c3e fb5c 80bd 60b9 463d
00000030: c3e0 a93d 1241 4f3e 7680 99bc e6d2 8d3b
00000040: d3e3 213e 5385 d9bc 8c67 5b39 40c2 013e
00000050: f5f1 643e 1aa0 503e c591 023d 673f ac3d
00000060: 1729 0e3e aca6 533d b061 e0bc 9195 aa3d
00000070: e3cd 6ebd 7aa4 023e b399 9dbd 5c04 453e
00000080: 5c1d dbbc 0ce1 c73d 3b35 2f3e 7510 c8bc
00000090: 8f8d 563d 5cff 133d da8b 763d 350b c03d
000000a0: be2e 97bd 48f7 3c3e 0f64 c5bb dc38 a33d
000000b0: ca1c 723e 0170 3b3d 5405 373e 4e16 083c
000000c0: 0c59 afbc bd19 d23d 7bcd dd3d e2a9 d43d
000000d0: 3aef 013e 2051 e7bc 396d 25bd bdd5 3d3e
000000e0: 6e50 c8bd 9f3c c03d f5d4 81bd dfd3 023d
000000f0: a7e7 253e 4734 a1bc eaf3 a03c ecf8 0bbd
00000100: e539 dcbb e651 01be a668 a13c 2f7a 23bd
00000110: aa7f 91bd 322b 2dbe c14e 01be 0bb3 babd
00000120: c1d1 29be 9a52 b53d 59ba debc 4eb8 e1ba
00000130: 2bcc 273d 814f b2bc 0883 8bbd c1b6 83bc
00000140: 8658 1abd 564e d23d 96a8 e63c 9773 1fbc
00000150: bb72 0e3d 6566 283d 6bf5 063e 9737 063d
00000160: 6400 b63d 0ac5 15bc a10f a83c 8328 5fbe
00000170: a7af 22be 095b fdbd 2d9c b73d 5710 763a
00000180: a67a 87bd df45 cdbd 8542 113e 7912 07bd
00000190: 613b b63d b959 5dbd 1dd1 11be 8bbb 663c
000001a0: a36c f13d 559a c23c 5222 d7bd a1c7 05be
000001b0: 0666 a83d aeca 54bd 441b 153e e9eb 3bbe
000001c0: a074 4e3d ab9a 98bd 319e b73d 807b bdbd
000001d0: 96a2 3abe b0e4 40be d0b9 fd3d 8fc9 f83d
000001e0: 738c 11be c9ee ac3c fd12 703d 54c2 16be
000001f0: 11a3 1bbd 7a67 a23d 806b 493e 0219 933c
00000200: e496 833c 2f91 1a3d 28b0 d9bd 9d4a d8bd
00000210: a9b3 8a3d ab6a 9bbc b1f1 c8bd a016 e83c
00000220: a118 d83d 8e34 5c3d 02ca 2cbd f10c 98bd
00000230: ffd0 03be 0ca3 b1bd dd29 1ebd 4f14 80bd
00000240: e367 1c3e 71de d73d 714b 053d 9d22 223d
00000250: 6d52 ff3d b39c 8439 8cd7 18be 9aa4 413d
00000260: 3973 21be 6daa 363e b4ab 02be 833e 0c3e
00000270: 5394 e9bd 3746 bebd 4d6a a83c 753e fc3d
00000280: 1c6c c8bc e6cf bc3d 621c 7bbd 3725 0abd
00000290: 3190 d8bd dac6 4d3d 1f7d d73d f9b0 cb3d
000002a0: 4cab 2c3d 6c26 23bd 2ff9 e0bc eb51 453a
000002b0: 7419 bcba 17c6 403d e127 f63d 186f a4bd
000002c0: 38d9 cbbd bf38 0c3e 099e 2c3d 1618 0d3c
000002d0: 6d3b 873d 94e6 233e 3e78 0c3e 8bb7 45bd
000002e0: 6882 5c3d 1504 04be 45d7 dd3d 4248 a83d
000002f0: ed5e b9bd 6b98 21be 44d5 19bd 9a34 c13c

fc.weight f4 [100, 64]
-0.12469764 -0.087921135 0.040655747 -0.052709877 -0.1351701 0.081982374 -0.061975885 0.15453702
0.011737037 -0.008153018 0.033517852 0.06707883 -0.15016943 0.0062963683 -0.12585166 0.09628877
0.021275919 0.071022056 0.017360868 0.05649555 -0.028808946 0.03711061 0.06345001 -0.19616511
0.003017169 0.042258244 -0.03415165 0.036265854 0.1939078 -0.098264895 0.11360116 0.047919244
0.04857678 0.08007416 -0.030495659 -0.106425606 0.17459546 -0.056672744 -0.13401586 -0.05915314
0.0049646418 0.07134765 -0.00073835935 0.058177013 -0.010834242 0.028084692 0.07792459 -0.120583534
-0.108326145 -0.037853103 0.09793241 -0.09176123 -0.13271962 -0.04245806 0.019069461 -0.08119791
0.034795556 0.030630374 -0.12659161 -0.097635336 -0.035808723 -0.0908355 -0.116445005 0.037738953
0.05885862 -0.039048344 -0.060652997 0.04694181 -0.14548369 -0.04547486 -0.10884561 0.112502895
0.022363847 0.022609787 -0.036472823 0.10847313 -0.0700701 0.08114432 -0.0067449873 -0.03014247
0.067460544 0.11606597 0.015173031 0.04313026 -0.07021726 0.008077186 0.0075752945 -0.1885597
0.0048043407 0.10972705 0.004355994 0.014708811 0.1266673 -0.01055707 -0.027573535 0.00476944
0.06594042 0.04063697 0.027345903 -0.08919296 0.04041072 -0.0042926488 -0.13661534 -0.062115986
-0.01952624 0.06896018 0.1352941 -0.011873945 -0.026215717 -0.0008375082 0.12167551 -0.0002785936
-0.049617756 0.0810405 -0.020891033 0.0453749 0.009083549 0.108890474 0.08955116 -0.056597628
-0.07362024 -0.021688657 -0.15918505 -0.063454084 0.013046144 -0.07291235 -0.0910845 -0.040772323
-0.061640896 0.0021367501 -0.061088763 0.01346943 0.05590536 -0.043751128 -0.05825965 0.00166001
0.023325207 -0.051338144 -0.12520126 0.06032917 -0.06400602 0.14202382 -0.008029809 0.047802888
0.016404567 0.09408636 0.16395743 -0.019864913 0.040296346 -0.04059638 0.095292404 -0.060219057
0.0044334936 0.02091398 0.091500334 0.074709035 0.10923142 -0.05639052 -0.00506853 -0.08485707
-0.050159935 -0.14501576 -0.0065470664 0.03460876 0.18178402 -0.06249322 -0.06332519 0.007031171
-0.056327507 0.06183187 0.15458535 -0.05774247 0.071527906 0.03428044 0.11580152 -0.06553252
0.0024797413 0.03928812 0.047994178 -0.09006686 -0.07659956 0.0019017287 0.088354394 -0.07508051
-0.024352465 0.045674015 -0.05547925 0.03216167 0.0063076364 -0.04258154 -0.055937354 0.01244794
-0.058979277 0.01863049 -0.08501807 -0.009114547 -0.109365396 0.00031593392 -0.083125144 0.050644007
0.088218324 -0.047880676 -0.057197638 0.035359465 -0.07525547 0.035146806 -0.052515537 0.07533583
0.08621586 0.1625958 0.053060282 -0.028718224 0.002745225 -0.07279437 0.11740197 0.009086834
-0.017245011 0.16263519 0.0653787 0.07074071 0.012812843 -0.061493013 0.075514525 -0.032830887
0.026768724 -0.046872396 -0.0436395 0.015030555 0.1681556 -0.14317144 -0.08938447 0.07792032
-0.03712066 0.0995218 -0.0023532773 0.1157058 0.07121846 0.045556396 0.04890298 -0.0995605
-0.061141916 -0.055486027 0.05195907 -0.07105083 0.018337632 0.08510193 0.036647715 -0.07916089
0.01558403 -0.050718114 -0.082867086 -0.10487125 0.021339955 -0.114133835 0.005235596 -0.07910716
00000000: 7a61 ffbd ff0f b4bd a486 263d 50e6 57bd
00000010: 086a 0abe 60e6 a73d 6dda 7dbd f43e 1e3e
00000020: b44c 403c 3c94 05bc 044a 093d a060 893d
00000030: 04c6 19be c451 ce3b 42df 00be 0c33 c53d
00000040: d64a ae3c 0374 913d 6138 8e3c e167 673d
00000050: bd00 ecbc 4c01 183d 14f2 813d 82df 48be
00000060: b2bb 453b fb16 2d3d 9ae2 0bbd 818b 143d
00000070: c48f 463e 1b3f c9bd baa7 e83d f846 443d
00000080: 72f8 463d ecfd a33d 08d2 f9bc abf5 d9bd
00000090: 27c9 323e ae21 68bd 743b 09be 904a 72bd
000000a0: 6fae a23b b71e 923d 758e 41ba 054b 6e3d
000000b0: 1b82 31bc de11 e63c ed96 9f3d 80f4 f6bd
000000c0: 19da ddbd db0b 1bbd ca90 c83d 50ed bbbd
000000d0: a7e7 07be 81e8 2dbd 8f37 9c3c 174b a6bd
000000e0: c985 0e3d 8dec fa3c 3ba1 01be 09f5 c7bd
000000f0: 2bac 12bd f607 babd b87a eebd 2994 1a3d
00000100: bc15 713d 28f1 1fbd 476f 78bd 0e46 403d
00000110: adf9 14be d943 3abd 72ea debd eb67 e63d
00000120: 6334 b73c 2938 b93c 8764 15bd 2927 de3d
00000130: ea80 8fbd fe2e a63d 0e05 ddbb 57ed f6bc
00000140: c128 8a3d ffb3 ed3d 4e98 783c 5ba9 303d
00000150: 11ce 8fbd 2c56 043c 2d3a f83b cb15 41be
00000160: bb6d 9d3b 93b8 e03d babc 8e3b 3afd 703c
00000170: 13b5 013e 90f7 2cbc e5e1 e1bc f648 9c3b
00000180: c50b 873d f472 263d 8404 e03c ccaa b6bd
00000190: b685 253d 59a9 8cbb e4e4 0bbe 556d 7ebd
000001a0: 7ef5 9fbc ff3a 8d3d 898a 0a3e ef8a 42bc
000001b0: 58c2 d6bc 398c 5bba 0331 f93d 3310 92b9
000001c0: fd3b 4bbd 90f8 a53d ac23 abbc 08db 393d
000001d0: 2ad3 143c f801 df3d 9966 b73d ead2 67bd
000001e0: 35c6 96bd 69ac b1bc 6801 23be 37f4 81bd
000001f0: 7ebf 553c 1253 95bd 838a babd e100 27bd
00000200: 2a7b 7cbd b808 0c3b 3638 7abd e2ae 5c3c
00000210: 05fd 643d 6234 33bd aca1 6ebd b194 d93a
00000220: 8114 bf3c f247 52bd c234 00be b81b 773d
00000230: 9715 83bd b16e 113e 768f 03bc f6cc 433d
00000240: df62 863c 59b0 c03d 75e4 273e bebb a2bc
00000250: c80d 253d 6448 26bd aa28 c33d 42a8 76bd
00000260: d746 913b cc53 ab3c 8764 bb3d 0d01 993d
00000270: b9b4 df3d bff9 66bd e915 a6bb 8bc9 adbd
00000280: 8174 4dbd 037f 14be c688 d6bb eac1 0d3d
00000290: 9725 3a3e e4f8 7fbd a3b0 81bd bd65 e63b
000002a0: acb7 66bd 6a43 7d3d 9f4b 1e3e 5e83 6cbd
000002b0: 397d 923d a669 0c3d 5929 ed3d ea35 86bd
000002c0: 2883 223b 94ec 203d 8b95 443d f974 b8bd
000002d0: 3be0 9cbd 6d43 f93a 26f3 b43d cfc3 99bd
000002e0: d27e c7bc ad14 3b3d 363e 63bd f5bb 033d
000002f0: 4ab0 ce3b fb69 2ebd 911e 65bd 72f2 4b3c
00000300: 4194 71bd f89e 983c f41d aebd 2e55 15bc
00000310: f7fa dfbd efa3 a539 843d aabd 1770 4f3d
00000320: cfab b43d 871e 44bd 1248 6abd 16d5 103d
00000330: 8a1f 9abd 19f6 0f3d 881a 57bd ac49 9a3d
00000340: f191 b03d 837f 263e bd55 593d 7b42 ebbc
00000350: 3ce9 333b 3715 95bd 7270 f03d f2e0 143c
00000360: 6945 8dbc d789 263e 45e5 853d 81e0 903d
00000370: f5ec 513c 19e0 7bbd 5ca7 9a3d ae79 06bd
00000380: 154a db3c 45fd 3fbd 55bf 32bd b842 763c
00000390: fb30 2c3e 899b 12be 340f b7bd b094 9f3d
000003a0: d50b 18bd 16d2 cb3d 7139 1abb 2af7 ec3d
000003b0: fcda 913d 5899 3a3d 7e4e 483d 60e6 cbbd
000003c0: f26f 7abd 5145 63bd 09d3 543d 1983 91bd
000003d0: cd38 963c ec49 ae3d ea1b 163d 1b1f a2bd
000003e0: 2954 7f3c ccbd 4fbd 38b6 a9bd bdc6 d6bd
000003f0: 21d1 ae3c 00bf e9bd 5d8f ab3b ef02 a2bd

fc.bias f4 [100]
-0.034241248 0.03761079 -0.017277965 0.07153596 0.043388736 0.0054221204 -0.01719792 0.060882173
-0.052649807 0.058510877 0.030523306 0.06294448 -0.07367834 -0.014533534 0.024416814 -0.020542974
0.03302426 -0.0037221427 0.009973164 -0.014507046 -0.06783215 -0.023502916 -0.04112412 -0.0022877543
-0.023772076 -0.038968284 -0.037122898 -0.008042177 0.0703651 -0.002107277 0.02968443 0.016318439
-0.05731199 -0.004940978 0.08997873 -0.019110011 -0.055776782 0.006092816 -0.053829204 0.0055699763
-0.028167205 0.03843168 0.034447294 0.04306649 0.00012464197 -0.046475764 0.0065689925 0.043154474
-0.001110673 0.04693324 0.09392808 -0.012631632 0.02028388 0.051647745 -0.069513015 0.0770464
0.046693753 0.0010197988 0.00053955615 0.031165676 -0.026329076 0.030474378 0.022975128 -0.011588211
-0.004744765 -0.008438545 0.035585947 0.057891104 -0.036229815 0.029047022 0.067120366 0.012484126
0.06636157 -0.017908374 -0.021026067 -0.045508385 0.008924572 0.044121962 -0.016527418 -0.008506611
-0.06198944 0.04732912 -0.009991169 -0.008624514 0.06418327 0.040533774 0.016792227 -0.049371712
0.09762574 -0.030068904 0.08645081 0.04166866 0.00022875224 0.05736898 0.035649136 0.05196456
-0.036519103 0.051379547 0.027150678 0.01944894
00000000: 8d40 0cbd c60d 1a3d 858a 8dbc 7281 923d
00000010: 63b8 313d 0bac b13b a7e2 8cbc 965f 793d
00000020: 53a7 57bd 1aa9 6f3d 030c fa3c 09e9 803d
00000030: abe4 96bd 0f1e 6ebc c505 c83c bd49 a8bc
00000040: 7244 073d 31ef 73bb 7b66 233c f6ae 6dbc
00000050: 95eb 8abd 3089 c0bc c471 28bd 26ee 15bb
00000060: a8bd c2bc 359d 1fbd 2e0e 18bd 56c3 03bc
00000070: 941b 903d 3e1a 0abb c32c f33c 3fae 853c
00000080: fabf 6abd ede7 a1bb c546 b83d 998c 9cbc
00000090: 3276 64bd 3fa6 c73b 037c 5cbd 5984 b63b
000000a0: e9be e6bc 8a6a 1d3d 9b18 0d3d 7d66 303d
000000b0: 53b2 0239 5f5d 3ebd b440 d73b bfc2 303d
000000c0: 0094 91ba 123d 403d 5d5d c03d e8f4 4ebc
000000d0: 612a a63c 968c 533d d75c 8ebd 81ca 9d3d
000000e0: f341 3f3d c5aa 853a 0071 0d3a 294f ff3c
000000f0: 13b0 d7bc 67a5 f93c 5636 bc3c 7bdc 3dbc
00000100: f979 9bbb d341 0abc 92c2 113d 391f 6d3d
00000110: b765 14bd 05f4 ed3c 6776 893d 388a 4c3c
00000120: 93e8 873d 95b4 92bc dc3e acbc 0067 3abd
00000130: 5e38 123c 3bb9 343d 8264 87bc 505f 0bbc
00000140: a4e8 7dbd 2edc 413d 00b2 23bc d54d 0dbc
00000150: 8572 833d be06 263d da8f 893c fe39 4abd
00000160: 01f0 c73d 1053 f6bc 1f0d b13d c2ac 2a3d
00000170: 36dd 6f39 bcfb 6a3d d404 123d cad8 543d
00000180: 0e95 15bd 5c73 523d 196b de3c 6253 9f3c
